facelandmarks/src/faceland.onnx (onnx, 429043 bytes, 88 tensors)

conv8.weight f4 [48, 1, 7, 7]
0	0xbe2f7606	-0.17134866
1	0xbdd8a08c	-0.10577497
2	0xbd43b370	-0.047778547
3	0xbd3ff5a7	-0.04686513
4	0xbd1bdc10	-0.038051665
5	0xbd0b906d	-0.034073282
6	0xbda161d3	-0.078799866
7	0xbced333d	-0.028955096
8	0xbd20c545	-0.03925063
9	0xbc53dad2	-0.012930589
10	0x3cb9aa6c	0.022664271
11	0x3cd1c7bd	0.025607938
12	0xbc467a32	-0.012114095
13	0xbd8959e9	-0.06706602
14	0xbd5e9be9	-0.054347906
15	0xbc72fb93	-0.014830488
16	0x3cdbe05b	0.02684038
17	0x3d441a2a	0.047876514
18	0x3d2b52ac	0.04182689
19	0xbc791969	-0.015203812
20	0xbd788c1c	-0.060680494
21	0xbc5243d7	-0.012833557
22	0x3d0a5ffc	0.033782944
23	0x3d4aff4c	0.049559876
24	0x3d553388	0.052051097
25	0x3d83b4f1	0.06430996
26	0x3d1cdc78	0.038296193
27	0x3c121aa4	0.008917484
28	0x3d45338a	0.048144855
29	0x3c733741	0.0148447165
30	0xbc001e2c	-0.007819694
31	0x3d2119eb	0.039331358
32	0x3dbd5ca6	0.09246187
33	0x3dbe525e	0.09293054
34	0x3d1ee392	0.038791247
35	0x3cfceeb5	0.030875543
36	0xbc3bbd4c	-0.011458706
37	0xbd7067dd	-0.0586928
38	0xbd8db10e	-0.06918536
39	0x3d444507	0.047917392
40	0x3e23c196	0.15991816
41	0x3d132796	0.035926424
42	0xbd9d42ce	-0.076787576
43	0xbdb5c3fe	-0.08875273
44	0xbe33f36e	-0.1757333
45	0xbe10622d	-0.14099951
46	0x3b91955e	0.004442855
47	0x3dbff4dc	0.09372875
48	0x3d0fbe6d	0.035093714
49	0xbdf901bd	-0.12158535
50	0x3d8f3b20	0.06993699
51	0xbd224639	-0.03961775
52	0xbcc53ff8	-0.024078354
53	0x3cb6aafe	0.022298332
54	0xbcbb1698	-0.022837922
55	0xbd154a17	-0.03644761
56	0x3d4e2fa5	0.050338406
57	0x3cd1a86c	0.025593005
58	0x3d0418e1	0.03225029
59	0x3d06ac80	0.032879353
60	0xbd8ed723	-0.06974628
61	0xbb5c643c	-0.003362908
62	0xbd1f650c	-0.038914725
63	0x3deb6b73	0.11495104
64	0x3d567b10	0.052363455
65	0xb79fade6	-1.9035255e-05
66	0xbd1014da	-0.035176136
67	0xbcb9f7cb	-0.022701165
68	0x3c101a3d	0.008795318
69	0xbd64bca5	-0.055843968
70	0x3c605446	0.013691967
71	0x3de39157	0.11111706
72	0xbc9a8f94	-0.018867292
73	0xbceebb4a	-0.02914204
74	0xbc554856	-0.0130177345
75	0xbce4e843	-0.027942782
76	0xbd73c0d6	-0.059510075
77	0xbe170592	-0.14748219
78	0x3e2d8f95	0.16949303
79	0x3d928123	0.07153537
80	0x3ca761e8	0.020432428
81	0xbb0e75f9	-0.0021737798
82	0x3a82350c	0.0009934022
83	0xbc9b8438	-0.018983945
84	0xbe367334	-0.17817384
85	0xbe753de5	-0.23949392
86	0x3da6cb16	0.08144204
87	0x3cebc08a	0.028778333
88	0xbb0f7adc	-0.0021893298
89	0x3c0eac55	0.008708079
90	0xbc23e402	-0.010003092
91	0xbc17c823	-0.009264025
92	0xbe0af3c6	-0.13569555
93	0xbd171ce7	-0.036892798
94	0x3c5e7ce6	0.013579583
95	0x3ccc7cc4	0.024961837
96	0xbc0eff98	-0.0087279305
97	0x3c64e5b2	0.013970779
98	0x3e76cbd2	0.24101189
99	0xbe96d730	-0.2946105
100	0xbd8fc4cd	-0.07019959
101	0xbdad1072	-0.08450402
102	0x3d93f2d5	0.07224051
103	0xbd61a6f9	-0.05509088
104	0xbcef5fab	-0.029220423
105	0x3cbd8fdf	0.023139892
106	0x3aec1d39	0.001801408
107	0xbd1c834b	-0.03821115
108	0xbe93b735	-0.28850713
109	0x3c6583ac	0.014008444
110	0xbe5bba7c	-0.21457857
111	0xbe67f713	-0.22652845
112	0xbc8c168f	-0.0171006
113	0xbcb10ceb	-0.021612605
114	0x3dc03f51	0.09387077
115	0x3cf706e7	0.030154658
116	0xbe29934d	-0.16560097
117	0x3e9c9e3a	0.30589467
118	0xbd968aee	-0.073507175
119	0x3e15a41c	0.14613384
120	0xbd8456f7	-0.064619
121	0x3cab0687	0.020877136
122	0xbd9d36dc	-0.07676479
123	0x3dd47c9d	0.103753306
124	0xbe9e02a6	-0.30861396
125	0xbdc766ab	-0.09736379
126	0x3d8a009b	0.06738397
127	0xbd1a8e17	-0.037733164
128	0xbc124f5b	-0.008930053
129	0x3e03960a	0.12850204
130	0xbaeca05a	-0.001805316
131	0xbe38753d	-0.18013473
132	0x3e5d2493	0.21595983
133	0xbdd6d298	-0.10489386
134	0xbd6e2b25	-0.058146615
135	0x3db89916	0.09013574
136	0xbd9dd1e0	-0.07706046
137	0x3bb98856	0.0056620045
138	0x3d1df4f0	0.03856367
139	0xbe653e3e	-0.22387025
140	0x3e506eca	0.20354763
141	0x3d6faf93	0.05851705
142	0xbd3b4e87	-0.045729186
143	0x3c8d972b	0.017283997
144	0xbe36498f	-0.17801498
145	0x3b9d4bfc	0.004800318
146	0xbdcdde37	-0.1005215
147	0x3e299a8f	0.16562866
148	0xbda29675	-0.07938854
149	0xbdc6da42	-0.09709598
150	0xbd3e439e	-0.046451204
151	0xbd866de2	-0.06563927
152	0x3de78683	0.11304953
153	0x3d44efe2	0.048080333
154	0xbdc00e2d	-0.09377704
155	0x3d83e99d	0.064410426
156	0xbd9b2d0d	-0.07576952
157	0x3e027227	0.12738858
158	0x3d276efb	0.040877324
159	0x3d4d8cdc	0.050183162
160	0xbcbea062	-0.023269836
161	0xbe25e0bf	-0.16199015
162	0x3bd221cc	0.0064127203
163	0x3d1ff03e	0.039047472
164	0x3cbfa2bc	0.023393027
165	0xbcd220f9	-0.025650488
166	0xbdd1ac0d	-0.10237894
167	0xbcec9ef8	-0.028884396
168	0x3e16ba90	0.14719605
169	0x3de1fe4a	0.1103483
170	0x3d461bd0	0.048366368
171	0xbcad4f06	-0.021155845
172	0xbd2775b4	-0.040883735
173	0xbcab3890	-0.020900995
174	0x3cfc42c3	0.030793553
175	0x3dacf7ce	0.084457025
176	0x3ddc98e0	0.10771346
177	0xbcebf4a8	-0.028803185
178	0x3c4b2697	0.012399337
179	0xbd0b6b72	-0.034038015
180	0x3c8a3779	0.016872155
181	0x3d788818	0.060676664
182	0x3ce33242	0.027733926
183	0xbd3b94c1	-0.04579616
184	0xbe1e1f52	-0.15441635
185	0xbdd141b2	-0.102176085
186	0xbde6459d	-0.112437464
187	0xbba10529	-0.004913945
188	0x3e84f3e8	0.25967336
189	0xbe68383f	-0.22677706
190	0xbc9ce306	-0.019151222
191	0xbd395b2c	-0.045252964
192	0xbe06413a	-0.1311082
193	0xbdf10f44	-0.1177049
194	0x3ca765e3	0.020434326
195	0x3e9866f7	0.29766056
196	0xbd2adb2c	-0.041712925
197	0xbd0d6607	-0.03452113
198	0xbda81f06	-0.08209042
199	0xbc438e3a	-0.011935765
200	0x3c2547f7	0.010087959
201	0xbc3a8d3a	-0.01138621
202	0xbde73582	-0.11289503
203	0xbceb632f	-0.028733818
204	0xbd79ee70	-0.061018407
205	0xbd3021c7	-0.043000963
206	0xbcf94705	-0.030429373
207	0xbd130330	-0.03589171
208	0xbcf00714	-0.02930025
209	0xbd223863	-0.039604556
210	0xbc242cce	-0.010020448
211	0xbc711316	-0.014714023
212	0xbcb4c7ee	-0.02206799
213	0xbcedd7e0	-0.029033601
214	0xbd099a16	-0.033594213
215	0xbd19d8ba	-0.037560202
216	0xbd3486f6	-0.04407402
217	0x3ca54845	0.020176062
218	0x3a621916	0.0008624954
219	0xbca58945	-0.020207057
220	0xbc5ac056	-0.0133515205
221	0x3b5b31dc	0.0033446467
222	0xbc68f52b	-0.014218609
223	0xbc9d6aa8	-0.019215897
224	0xbc8d95e4	-0.017283387
225	0xbd44cebe	-0.048048727
226	0xbd2cbf44	-0.042174593
227	0xba8da7b4	-0.0010807426
228	0x3ab5e36a	0.0013876979
229	0xbd00853c	-0.031377062
230	0xbb871033	-0.004121804
231	0xb9be144c	-0.00036254746
232	0x3d1a33bf	0.037647005
233	0x3b844570	0.004036598
234	0x3c5088ad	0.012727899
235	0x3bb18fc2	0.0054187486
236	0x3cf467cf	0.029834656
237	0x3cc01c45	0.02345098
238	0xbd33d6fc	-0.043906197
239	0x3dd8035c	0.10547516
240	0x3e1ef569	0.15523304
241	0x3e48673c	0.19570631
242	0x3e29b0e7	0.16571389
243	0x3dfaf821	0.12254358
244	0x3d7357ba	0.059409834
245	0x3d1083d9	0.03528199
246	0x3d0ec1c0	0.034852743
247	0xbdca692a	-0.0988334
248	0x3c28881e	0.010286359
249	0xbb26ea31	-0.0025469179
250	0x3d7ea625	0.062170167
251	0x3e1c7e3d	0.15282531
252	0x3ca051e5	0.0195703
253	0x3d804802	0.062637344
254	0xba03d89c	-0.0005029531
255	0xbc4b6cf3	-0.012416112

conv8.bias f4 [48]
0	0x3dfd71b2	0.12375201
1	0x3d2fed7b	0.04295109
2	0x3d70254f	0.05862933
3	0x3db12c8c	0.08651075
4	0x3d6ef6a4	0.058340684
5	0x3dab063b	0.08350798
6	0x3d0f3be9	0.034969244
7	0xbddc208a	-0.10748394
8	0x3cbd136e	0.023080554
9	0x3b7a45fd	0.003818869
10	0x3e444b3e	0.19169328
11	0x3e0d588c	0.13803309
12	0x3d2ccc94	0.04218729
13	0xbe55d93b	-0.20883648
14	0xbc1a8aef	-0.009432538
15	0x3e32eb4c	0.17472571
16	0x3e3beb81	0.18351556
17	0x3e2cc174	0.16870672
18	0x3d5288ca	0.051399983
19	0x3e4978bf	0.19674967
20	0x3e435dfd	0.19078822
21	0x3b0fb459	0.0021927564
22	0x3d113f47	0.035460737
23	0x3e34d93e	0.17660996
24	0xbd84f298	-0.064915836
25	0x3e547551	0.20747878
26	0x3caa5375	0.020791749
27	0xbaf8014c	-0.0018921285
28	0x3c86c93c	0.016453378
29	0x3e032959	0.12808742
30	0x3d14032d	0.03613584
31	0xbd23b7a0	-0.03997004
32	0x3da816aa	0.08207448
33	0x3cfae3f1	0.030626269
34	0x3d01269f	0.031530973
35	0x3d699b98	0.05703315
36	0x3dc239cc	0.0948368
37	0x3e48b81c	0.19601482
38	0x3e34e1d8	0.17664278
39	0x3ccb2859	0.024799513
40	0x3d828cf2	0.063745394
41	0x3d2b4875	0.041817147
42	0x3c829d1a	0.015944052
43	0xbc83bec3	-0.016082173
44	0x3d5892e7	0.052874472
45	0x3b8674a3	0.0041032596
46	0x3cd4af74	0.025962569
47	0x3d1d9f9c	0.038482293

fc.weight f4 [196, 120]
0	0xbd99a896	-0.07502858
1	0x3c4a7de6	0.012359118
2	0xb9b54cf0	-0.00034580333
3	0xbbfc8d45	-0.0077072703
4	0xbcef73c1	-0.02923
5	0x362cac31	2.5730226e-06
6	0xbb9273a8	-0.0044693537
7	0xbb61636a	-0.003439153
8	0xb7e2d73a	-2.7041522e-05
9	0x3ccb460f	0.02481368
10	0x3cab2888	0.02089335
11	0xbd487a97	-0.048945036
12	0x3cdf465c	0.02725523
13	0x3d12d25a	0.035845138
14	0x3c81e6e7	0.015857173
15	0x3d1350be	0.035965674
16	0x3afbfe17	0.0019225505
17	0x3d1f8aea	0.03895084
18	0x3c05de5a	0.0081706885
19	0xbaeea763	-0.0018207844
20	0xbc4d80a7	-0.01254288
21	0xbc976067	-0.018478585
22	0xbd7fcf37	-0.062453475
23	0x3ca3a114	0.019974269
24	0x3ded8db7	0.115992956
25	0x3de41499	0.11136741
26	0x3df0897e	0.117449746
27	0xbe1e54da	-0.15462056
28	0x3e1983b7	0.14991651
29	0x3dad443a	0.08460279
30	0x3e5e7588	0.21724522
31	0xbdc301b1	-0.09521807
32	0xbe0b1b62	-0.13584664
33	0xbe8ad32a	-0.2711423
34	0x3d3e137f	0.04640531
35	0x3ca29610	0.019846946
36	0x3eee70bb	0.46570382
37	0x3c5f38df	0.013624399
38	0xbe3c7e7c	-0.18407625
39	0x3ac8ad18	0.0015310375
40	0xbf0a0ad6	-0.53922784
41	0xbe5ef7e9	-0.21774258
42	0x3eb6ddef	0.35716197
43	0x3e3cd9d7	0.18442474
44	0x3ebbde92	0.36693245
45	0x3e564a58	0.20926797
46	0x3d561e43	0.052274954
47	0xbdb8eaa9	-0.09029133
48	0xbe8aa68c	-0.2708019
49	0xbd9a39c8	-0.07530552
50	0x3e4cd66a	0.20003667
51	0x3acc35c0	0.0015579984
52	0xbe6111e1	-0.21979477
53	0x3e042c1e	0.12907454
54	0x3ca1aea2	0.019736592
55	0x3e255ffd	0.16149898
56	0xbef388fe	-0.47565454
57	0x3dab60d6	0.08368079
58	0xbe214acb	-0.15751188
59	0x3dcc7f59	0.09985227
60	0x3e9784b8	0.29593444
61	0xbd8b4674	-0.06800547
62	0x3e087537	0.13325964
63	0x3e461dc9	0.193473
64	0x3d9463f4	0.07245627
65	0xbe35ec12	-0.17765835
66	0xbe706ffd	-0.2348022
67	0x3e1b5ac9	0.1517135
68	0xbdc82498	-0.09772605
69	0xbe75d9f6	-0.24008927
70	0x3eb3cdd5	0.35117975
71	0x3e60686a	0.21914831
72	0xbc5eba9b	-0.013594295
73	0x3e135f25	0.14391764
74	0xbd8e5d4d	-0.069513895
75	0xbca7c0f1	-0.020477744
76	0xbd19753f	-0.03746533
77	0x3da2ae7d	0.07943437
78	0xbce57a32	-0.028012369
79	0xbddbc909	-0.10731704
80	0xbd18c8d0	-0.037300885
81	0x3ca26368	0.019822791
82	0x3da86e27	0.08224135
83	0x3c97cdab	0.018530687
84	0x3af6d7b1	0.0018832592
85	0x3d7b25a3	0.06131519
86	0x3c8216f5	0.015880087
87	0xbd277b51	-0.040889088
88	0x3d95ba7d	0.073109604
89	0xbcb181ba	-0.021668304
90	0x3d384cfe	0.0449953
91	0xbb471c1d	-0.0030381747
92	0xbce890e6	-0.028389405
93	0x3cdd7488	0.027033105
94	0xbd2770f6	-0.040879212
95	0xbd536d1a	-0.05161772
96	0x3c584678	0.013200395
97	0xbd18bc1b	-0.037288766
98	0xbc13db28	-0.009024419
99	0x3d2bf09d	0.041977514
100	0xbe0a756b	-0.13521354
101	0xbd0353cb	-0.032062333
102	0x3d9d22e6	0.07672672
103	0x3e3ae0c5	0.18249805
104	0x3d426a09	0.047464404
105	0x3ba51a79	0.005038556
106	0x3c9dfbd8	0.019285128
107	0xbdce2be8	-0.10066968
108	0xbd97cb38	-0.07411808
109	0x3d806e57	0.06271046
110	0x3dae719f	0.08517765
111	0xbd1f7801	-0.038932804
112	0x3b526262	0.0032102098
113	0xbd372ddb	-0.044721466
114	0x3dac714a	0.08420046
115	0x3e4b314e	0.19843027
116	0x3d8ad91b	0.06779691
117	0xbd4ce27c	-0.05002068
118	0xbc06b2d6	-0.008221349
119	0xbdae49e1	-0.08510185
120	0xbc1953fd	-0.009358403
121	0x3d04363b	0.03227828
122	0xbc62078c	-0.013795745
123	0x3cd509c7	0.026005639
124	0x3d4d79a1	0.050164822
125	0x3cb6288e	0.022236135
126	0xbc8aa1ff	-0.016922949
127	0xbd4649c1	-0.04841018
128	0x3b9830bd	0.004644482
129	0x3bbe23ed	0.0058026225
130	0xbbbb6efb	-0.005720017
131	0x3d05a023	0.03262342
132	0xbd1ffdac	-0.03906028
133	0x3d86dcf4	0.06585112
134	0x3d08a8ee	0.03336423
135	0x3d8864dc	0.066598624
136	0xbc0ace7f	-0.008472084
137	0xbd59897a	-0.053109623
138	0xbc8e889b	-0.017399123
139	0xbd0dd585	-0.034627456
140	0x3c911ef6	0.017714959
141	0x3ce66785	0.028125534
142	0x3ba50872	0.005036407
143	0x3c91a01b	0.01777654
144	0x3e534f3e	0.20635697
145	0xbcc43449	-0.023950713
146	0x3db82a77	0.089924745
147	0xbcaa8aeb	-0.020818194
148	0xbe4a833a	-0.19776621
149	0xbd5f0314	-0.054446295
150	0xbd2b5d9c	-0.04183732
151	0x3dcd298a	0.100176886
152	0xbd742e36	-0.059614383
153	0x3d9028be	0.07039021
154	0x3e8d4a8d	0.2759594
155	0xbca960a6	-0.020675968
156	0x3e4020ff	0.18762587
157	0xbd1cb36e	-0.038257055
158	0x3ec78272	0.3896671
159	0x3d9b7543	0.07590725
160	0x3dbb6954	0.09150949
161	0xbd8cccfe	-0.06875037
162	0x3c850345	0.01623691
163	0x3e3eefff	0.18646239
164	0x3e0c4291	0.13697268
165	0xbc890b86	-0.016729128
166	0xbd5bcdb8	-0.053662986
167	0xbce3e054	-0.027816929
168	0x3e5b88d0	0.21438909
169	0xbea1c341	-0.3159428
170	0xbd63ea5f	-0.055643436
171	0xbd25b494	-0.040455416
172	0x3f0bf60d	0.5467232
173	0x3e66e37c	0.22547716
174	0x3e116210	0.14197564
175	0x3e26b6bf	0.1628065
176	0x3e2f95ba	0.1714696
177	0x3de7de9a	0.11321755
178	0xbdb48416	-0.08814256
179	0xbd996f5b	-0.074919425
180	0xbd17d299	-0.037066076
181	0xbd17cb21	-0.037058953
182	0x3e953671	0.29143098
183	0x3e269b05	0.16270073
184	0xbdd547d9	-0.104140945
185	0xbe21a6e3	-0.15786318
186	0xbf2512a3	-0.6448156
187	0xbe1d7436	-0.15376362
188	0x3d34eb87	0.04416993
189	0xbdf30d6a	-0.11867793
190	0x3e1d09f5	0.1533583
191	0x3e196425	0.14979608
192	0x3e0d5207	0.13800822
193	0xbd9fffd8	-0.0781247
194	0x3d80e18a	0.06293018
195	0x3e002637	0.12514578
196	0x3d38db45	0.045130987
197	0xbd118cf6	-0.03553482
198	0x3db903ca	0.09033926
199	0xbd098ee2	-0.03358353
200	0x3d1834e4	0.037159815
201	0xbba64838	-0.005074527
202	0xbd3338e0	-0.043755412
203	0xbd3a3443	-0.045459997
204	0xbd5dea82	-0.054178722
205	0xbd9cd3a4	-0.07657555
206	0x3cbfddd8	0.023421213
207	0x3ea473dc	0.32119644
208	0xbd1b2761	-0.03787935
209	0x3dcc6aac	0.099812835
210	0x3e4fb91c	0.20285457
211	0xbd4086d9	-0.0470036
212	0x3caefae4	0.021359868
213	0xbc6200ee	-0.013794167
214	0x3df4fc8e	0.119622335
215	0x3ea96e70	0.3309207
216	0x3e6bceaf	0.23028062
217	0x3c8fda89	0.01756026
218	0xbd2c8ec2	-0.042128332
219	0xbcc38c41	-0.02387059
220	0x3d30c951	0.04316074
221	0x3d4fbd3f	0.05071759
222	0x3cc6567f	0.024211166
223	0xbdf9c286	-0.121953055
224	0xbe53227f	-0.20618628
225	0x3b9a7c9e	0.0047145626
226	0x3c9012e2	0.017587129
227	0x3bef6b1b	0.007306469
228	0x3d0bc798	0.034125894
229	0xbd94adf6	-0.07259743
230	0xbbcf38f0	-0.006323926
231	0xbc8e248f	-0.017351417
232	0xbc5925bf	-0.013253628
233	0xbc82e0a4	-0.015976258
234	0xbd0fd03d	-0.0351107
235	0xbe068575	-0.13136847
236	0x3d82acfc	0.063806504
237	0xbe4aa596	-0.19789729
238	0x3d182bf6	0.0371513
239	0x3d9ae5d1	0.07563365
240	0xbd8b3825	-0.06797818
241	0x3c25981a	0.010107065
242	0x3c47fe99	0.012206697
243	0xbc7c7e8f	-0.015411033
244	0xbc8dbc2b	-0.01730164
245	0xba943add	-0.0011309047
246	0x3c3a8743	0.011384788
247	0xbaf88f83	-0.0018963668
248	0x398a287a	0.00026351569
249	0x3cbd3e7c	0.023101084
250	0x3c823b11	0.015897306
251	0xbd0b3e39	-0.033994887
252	0x3cd06bf2	0.025442097
253	0x3cf330f4	0.029686429
254	0x3bbaff4e	0.005706704
255	0x3cfcd106	0.030861389

fc.bias f4 [196]
0	0x3beecf26	0.0072878776
1	0x3dbd8e6a	0.09255679
2	0x3c6a1c05	0.014288907
3	0x3dddb780	0.108260155
4	0x3cb9cdca	0.022681136
5	0x3dfc0cd7	0.123071365
6	0x3d092686	0.033484004
7	0x3e109fab	0.14123408
8	0x3d317bf5	0.043331105
9	0x3e201f48	0.15636933
10	0x3d670517	0.05640134
11	0x3e31cd99	0.17363586
12	0x3d89739e	0.06711505
13	0x3e417352	0.18891647
14	0x3d9d3783	0.07676604
15	0x3e4fc9d1	0.2029183
16	0x3da844df	0.08216261
17	0x3e5b599f	0.21420906
18	0x3db156c4	0.08659127
19	0x3e664435	0.22486956
20	0x3dc08573	0.094004534
21	0x3e7577c1	0.23971464
22	0x3dcb5e03	0.09930041
23	0x3e836bb1	0.256681
24	0x3dd70660	0.10499263
25	0x3e8d6425	0.27615467
26	0x3dec4332	0.11536254
27	0x3e99087d	0.2988929
28	0x3e066298	0.13123548
29	0x3ea3fc0a	0.32028228
30	0x3e1ac5ab	0.15114467
31	0x3eaa6d1d	0.33286372
32	0x3e2a3700	0.16622543
33	0x3ea8d3a6	0.32973975
34	0x3e436533	0.19081573
35	0x3ea85316	0.3287589
36	0x3e5257ce	0.20541307
37	0x3ea5eeac	0.32408655
38	0x3e609460	0.219316
39	0x3ea5d862	0.3239165
40	0x3e732970	0.23746276
41	0x3ea54ee0	0.3228674
42	0x3e82e09d	0.2556199
43	0x3ea1a700	0.31572723
44	0x3e8aec63	0.27133474
45	0x3e995266	0.29945678
46	0x3e90eeda	0.2830723
47	0x3e8fd906	0.28095263
48	0x3e967567	0.29386446
49	0x3e851d91	0.2599912
50	0x3e9af45e	0.30264562
51	0x3e71afda	0.23602238
52	0x3e9fd430	0.31216574
53	0x3e57cfd7	0.21075378
54	0x3ea3a3b4	0.31960833
55	0x3e3ba674	0.18325216
56	0x3ea5edba	0.32407933
57	0x3e2138d7	0.15744339
58	0x3ea86af1	0.3289409
59	0x3e0946ac	0.13405865
60	0x3eab80cf	0.3349671
61	0x3ddd3136	0.10800402
62	0x3eadac13	0.33920345
63	0x3da7c8c7	0.08192592
64	0x3eac4fac	0.33654535
65	0x3d545e0e	0.05184751
66	0x3d949466	0.07254867
67	0x3db1e3c5	0.08686022
68	0x3dbd72fe	0.09250449
69	0x3d8eb9dd	0.06969044
70	0x3dd40f1f	0.103544466
71	0x3d6d591c	0.05794631
72	0x3de49dad	0.11162887
73	0x3d1e70d8	0.038681835
74	0x3de8d0fa	0.11367984
75	0x3cd54a72	0.026036475
76	0x3dd93d50	0.106073976
77	0x3cef883e	0.02923977
78	0x3dd3abeb	0.10335525
79	0x3d394fd3	0.045242142
80	0x3dcf2342	0.10114147
81	0x3d8b7b14	0.06810585
82	0x3dcb3de5	0.09923915
83	0x3db49187	0.0881682
84	0x3e45a53f	0.19301318
85	0x3d4e27d2	0.050330944
86	0x3e5e441f	0.21705674
87	0x3d8a9c78	0.06768125
88	0x3e7130e6	0.2355381
89	0x3dad3145	0.08456663
90	0x3e7a676c	0.24453515
91	0x3dd76d0e	0.105188474
92	0x3e83892d	0.25690594
93	0x3ddc7925	0.10765294
94	0x3e7271a5	0.23676164
95	0x3dc38b01	0.09547997
96	0x3e688f85	0.22710998
97	0x3da07153	0.07834115
98	0x3e57d09a	0.21075669
99	0x3d808e86	0.06277184
100	0x3e49797b	0.19675247
101	0x3d336e01	0.04380608
102	0x3de66720	0.11250138
103	0x3db2ae52	0.08724655
104	0x3df964d0	0.121774316
105	0x3dea54f2	0.11441983
106	0x3e0b94cf	0.13630985
107	0x3e150364	0.14552075
108	0x3e13a4e5	0.14418371
109	0x3e2f409c	0.1711449
110	0x3de84c76	0.11342709
111	0x3e48a1b2	0.19592932
112	0x3e0cfeac	0.13769025
113	0x3e4a9b1d	0.19785734
114	0x3e1e70ca	0.15472713
115	0x3e3f4c4a	0.18681446
116	0x3e432b5c	0.19059509
117	0x3e3b453d	0.18288131
118	0x3e61469c	0.21999592
119	0x3e3e78fb	0.18600838
120	0x3d836973	0.06416597
121	0x3dc8ad66	0.09798698
122	0x3daccd23	0.08437564
123	0x3dc9a829	0.09846527
124	0x3db9727d	0.0905504
125	0x3dc4b9bf	0.09605741
126	0x3de1457f	0.109995835
127	0x3dd57af6	0.104238436
128	0x3dff34e5	0.12461261
129	0x3dee3956	0.1163203
130	0x3de56a52	0.112019196
131	0x3ddab611	0.10679258
132	0x3dc4557d	0.09586618
133	0x3dc0ea76	0.0941972
134	0x3dab877c	0.08375451
135	0x3dc9a468	0.09845811
136	0x3e53f6c7	0.20699607
137	0x3dffc61f	0.124889605
138	0x3e5e5f29	0.21715988
139	0x3dcbd683	0.09953024
140	0x3e69d9f6	0.22837052
141	0x3dc1d532	0.09464492
142	0x3e73a92a	0.23795
143	0x3dd65a02	0.104663864
144	0x3e81574a	0.2526191
145	0x3dec5e43	0.115414165
146	0x3e74dc9f	0.23912285
147	0x3de08bbe	0.10964154
148	0x3e677ff6	0.22607407
149	0x3dd83cae	0.10558449
150	0x3e6408f2	0.22269037
151	0x3de57f7e	0.11205958
152	0x3de5445b	0.111946784
153	0x3e68f146	0.22748289
154	0x3ddcfda1	0.107905634
155	0x3e5a16e0	0.21297789
156	0x3ddfccd7	0.10927742
157	0x3e5022eb	0.2032582
158	0x3defdeb2	0.11712398
159	0x3e4ed4f1	0.20198418
160	0x3e055f8b	0.13024728
161	0x3e5339b2	0.20627478
162	0x3e40beab	0.18822734
163	0x3e6f181c	0.23349041
164	0x3e61b687	0.22042285
165	0x3e8f810f	0.2802815
166	0x3e542c05	0.20719917
167	0x3e881f2a	0.26586276
168	0x3e360568	0.177755
169	0x3e87de27	0.26536676
170	0x3e07c3f8	0.1325835
171	0x3e84a2e3	0.25905523
172	0x3df2cb7b	0.11855217
173	0x3e841acf	0.25801703
174	0x3de19c23	0.11016109
175	0x3e77930e	0.2417719
176	0x3df3801c	0.11889669
177	0x3e6be937	0.23038183
178	0x3df1257f	0.1177473
179	0x3e676b56	0.22599539
180	0x3ded23f5	0.11579124
181	0x3e588777	0.21145426
182	0x3e40f228	0.18842375
183	0x3e743cbc	0.23851293
184	0x3e64be96	0.22338328
185	0x3e8f5964	0.27997887
186	0x3e4747a9	0.1946093
187	0x3e7f4c91	0.24931552
188	0x3e078adc	0.13236564
189	0x3e741618	0.23836553
190	0x3e0255b1	0.12728001
191	0x3e730d00	0.23735428
192	0x3de9b9c1	0.11412383
193	0x3de5c029	0.11218292
194	0x3e777e7b	0.24169342
195	0x3ded2ba4	0.115805894

onnx::Conv_562 f4 [16, 3, 3, 3]
0	0x3fd59395	1.6685663
1	0x3f382410	0.71930027
2	0x3e38869c	0.180201
3	0x3f70eded	0.94113046
4	0xbeffe1cd	-0.4997696
5	0xbf996ad0	-1.1985722
6	0x3efe234f	0.49636313
7	0xbf0803cf	-0.5313081
8	0xbf28f726	-0.6600212
9	0xbf1372e1	-0.57597166
10	0x3d29b16f	0.04142898
11	0xbf0c75ff	-0.5486755
12	0xbf45c3cf	-0.77251905
13	0xbebb2765	-0.36553493
14	0xbf267fb6	-0.6503862
15	0xbefc2263	-0.49244985
16	0xbece0c75	-0.4024388
17	0xbf1efa80	-0.6210098
18	0xbf624f5c	-0.8840234
19	0xbef20554	-0.4726969
20	0x3e3e98b2	0.18612936
21	0xbf8a3f47	-1.0800561
22	0xbd4bfd7c	-0.04980229
23	0x3fcc6551	1.5968419
24	0x3f1c29f8	0.6100154
25	0x3f3e9183	0.74440783
26	0x3facb840	1.3493729
27	0xbe6e54f8	-0.232746
28	0x3f1ee3ff	0.62066644
29	0xbd79268f	-0.060827788
30	0xbd4f6c56	-0.050640427
31	0xbebf0f8b	-0.37316546
32	0xbe99b885	-0.3002359
33	0x3bbae2a1	0.005703286
34	0xbe2e730f	-0.17036079
35	0x3e1e85be	0.15480706
36	0x3cd5d845	0.026104102
37	0x3f40eb9c	0.7535951
38	0x3d50384b	0.050834935
39	0xbe6d7b06	-0.23191461
40	0xbf2ca190	-0.67434025
41	0xbef86627	-0.48515436
42	0x3d1542ba	0.03644059
43	0xbe8fa519	-0.28055647
44	0x3ed1335f	0.40859506
45	0xbe5f481b	-0.2180485
46	0x3f0aa252	0.5415393
47	0x3d7fd0eb	0.0624551
48	0xbe5f161d	-0.2178578
49	0xbf0f3598	-0.5594115
50	0xbed52612	-0.41630608
51	0x3e13852d	0.14406271
52	0xbe157750	-0.14596295
53	0x3e4f0420	0.20216417
54	0x3f9acac3	1.2093128
55	0xc00902e8	-2.1408024
56	0x402b0f82	2.6728215
57	0xc0bc0e4f	-5.8767467
58	0xc119727c	-9.59045
59	0xc05628cc	-3.34624
60	0x3f39e02b	0.7260768
61	0xbffe98cd	-1.9890381
62	0x404b7298	3.1788692
63	0x405a18cc	3.4077635
64	0x3fbad4fe	1.459625
65	0x3ff55977	1.9167928
66	0x40017cc5	2.0232403
67	0x3f3b2606	0.73104894
68	0x3f9430cf	1.1577395
69	0x3fb17087	1.3862466
70	0x3f19b7aa	0.60045874
71	0x3f812d29	1.0091907
72	0xc0058d85	-2.0867627
73	0xbeb5459d	-0.35404673
74	0xc04ad9fa	-3.1695542
75	0x404bf8e3	3.1870658
76	0x409ad1a3	4.8380904
77	0x3fff3c77	1.9940327
78	0xbf9ad412	-1.2095969
79	0x3ec4cece	0.3843903
80	0xbfe25afa	-1.7684014
81	0x3dfdcb4b	0.12392291
82	0xbea70de5	-0.32627788
83	0xbf125016	-0.5715345
84	0xbf0b1b9d	-0.5433901
85	0xbe517199	-0.2045349
86	0x3dd5b369	0.104346104
87	0xbf1e7dfd	-0.6191099
88	0xbf015e05	-0.5053409
89	0xbde5206f	-0.11187827
90	0x3ea86213	0.32887325
91	0x3e6c30af	0.23065446
92	0xbe8ee054	-0.27905524
93	0xbeb93964	-0.36176598
94	0x3db5a925	0.088701524
95	0x3dc3f7a1	0.09568716
96	0xbdd1d3bc	-0.10245463
97	0x3c924fcb	0.017860314
98	0x3e1a0489	0.15040793
99	0x3eb7dd02	0.35910803
100	0x3ed035d3	0.40666065
101	0xbd1e2d15	-0.038617212
102	0xbd919652	-0.071087494
103	0x3ec93c1e	0.39303678
104	0x3e5efe57	0.2177671
105	0x3cc0ceea	0.023536164
106	0x3e748ba4	0.23881394
107	0x3e36ecbc	0.17863744
108	0x3f8d2b34	1.102881
109	0xbf7d044d	-0.9883469
110	0x3e0b4922	0.13602117
111	0xbf08042d	-0.5313137
112	0xbf3263a6	-0.696833
113	0x3e2888ae	0.16458389
114	0xbec29558	-0.38004565
115	0x3fb1ec17	1.3900174
116	0xbf82e7bc	-1.022697
117	0x3f95816f	1.1680125
118	0xbf63060e	-0.88681114
119	0x3edd2f09	0.43199947
120	0xbf635498	-0.88800955
121	0xbf683278	-0.9070201
122	0x3ed65e87	0.41868994
123	0xbe3bcdd9	-0.18340243
124	0x3fac247b	1.3448633
125	0xbf161b3e	-0.5863532
126	0x3f4054e4	0.7512953
127	0xbf8a7c3c	-1.0819163
128	0x3e6a3d25	0.22874887
129	0xbf2910ae	-0.66041076
130	0xbf28aef5	-0.65891963
131	0x3f1c5e9f	0.6108188
132	0xbe9e27f8	-0.3088987
133	0x3fa0bb16	1.2557094
134	0xbe3d9d03	-0.18516926
135	0x3e3c447e	0.18385503
136	0xbeed90a8	-0.46399426
137	0xbf7f1003	-0.99633807
138	0x401dacc6	2.4636703
139	0x3f3b18a0	0.7308445
140	0xbfe55bcc	-1.7918639
141	0x3f071070	0.52759457
142	0x3ea4a64f	0.32158133
143	0xbfba4737	-1.4552983
144	0x401aca79	2.418608
145	0xbd07d577	-0.03316256
146	0xbfd9a93b	-1.700477
147	0x40874eb7	4.2283587
148	0x3da06353	0.078314446
149	0xc06a0936	-3.6568122
150	0x3fc230c4	1.5171132
151	0xbf04748d	-0.5174034
152	0xc01e5a4d	-2.4742615
153	0x3ff3dc95	1.9051691
154	0x3dbb7f0b	0.09155091
155	0xbf81a7ee	-1.0129373
156	0x401b0c5d	2.4226296
157	0xbe79ff05	-0.24413688
158	0xc00b79be	-2.1793056
159	0x3f9d38c2	1.2282946
160	0xbf0181d3	-0.5058872
161	0xbfa9af1f	-1.3256568
162	0xbf38f63d	-0.7225073
163	0xbfe832b5	-1.8140475
164	0xbfae716f	-1.3628367
165	0x3daee57f	0.08539867
166	0xba9ea745	-0.0012104294
167	0x3ea437f8	0.3207395
168	0x3ec64d28	0.3873074
169	0x3f901ad4	1.1258187
170	0x3fecda06	1.8504035
171	0xbf134a66	-0.575354
172	0xbfe515c3	-1.7897266
173	0xbff951ec	-1.9478126
174	0x3f5394c2	0.8264886
175	0x3f2a8565	0.66609794
176	0x3ebb246b	0.36551222
177	0x3dd1d3a0	0.102454424
178	0x3f7da607	0.9908146
179	0x3f9b9da4	1.2157483
180	0xbf6c7275	-0.9236215
181	0xbfcbe99b	-1.5930666
182	0xc014061a	-2.3128724
183	0x3f0f9012	0.5607921
184	0x3f2e4f4c	0.6808975
185	0x3e1ba998	0.15201414
186	0x3edf5e23	0.43626508
187	0x3fad2b38	1.3528814
188	0x3f915d0f	1.1356524
189	0x3f04b5fe	0.518402
190	0x3fc1f7bb	1.5153726
191	0x3fb60727	1.4220933
192	0xbf98c629	-1.1935474
193	0x3cfb5e67	0.030684663
194	0x3f956923	1.167271
195	0xbf472b4f	-0.7780046
196	0xbf7782f9	-0.96684223
197	0xbd9908c8	-0.07472378
198	0xbf2363ee	-0.63824356
199	0xbc7a53c2	-0.0152787585
200	0xbf125464	-0.5716002
201	0xbf853fd5	-1.0410105
202	0xbe8c5c7c	-0.2741431
203	0xbcf1f29e	-0.029534634
204	0xbe130212	-0.14356259
205	0xbf7687c6	-0.96300924
206	0xbf46d33f	-0.77666086
207	0x3e4e416d	0.20142145
208	0xbf5d7da4	-0.8651984
209	0xbf9cf2fd	-1.2261654
210	0x3f3724b0	0.71540356
211	0xbec2f9a1	-0.38081077
212	0xbf80d57c	-1.006515
213	0x4011ba08	2.2769794
214	0x3f8a1a85	1.0789343
215	0x3f1d3a27	0.6141686
216	0xbf2de9de	-0.6793498
217	0xbdf1d21a	-0.11807652
218	0xbf236873	-0.6383125
219	0x4007c380	2.1213074
220	0x40248757	2.5707605
221	0x3ff77570	1.9332714
222	0xc003aaa7	-2.0572908
223	0xc02ee2c1	-2.73259
224	0xbfe1173a	-1.7585213
225	0x3e6fe9a0	0.23428965
226	0x3f858a8a	1.0432904
227	0x3f114597	0.5674681
228	0x40101018	2.2509823
229	0x402083ff	2.5080564
230	0x3ff308b3	1.898703
231	0xc025b1da	-2.5889802
232	0xc07129d1	-3.7681773
233	0xc013e211	-2.310673
234	0xbdeff3b0	-0.117164016
235	0x3f1de0b1	0.61670977
236	0x3f0b95b4	0.54525304
237	0x3f9d0ed2	1.2270148
238	0x3fdf01ca	1.7422421
239	0x3f886311	1.0655233
240	0xbfd4df91	-1.6630727
241	0xc011cc7b	-2.2781055
242	0xbfa1a03d	-1.2627026
243	0x3e4c916b	0.19977348
244	0xbf379225	-0.71707374
245	0x3ef89c74	0.48556864
246	0xbf33a7e7	-0.70178074
247	0x3ed0389f	0.40668198
248	0x3f00960a	0.5022894
249	0xbcb6895a	-0.022282291
250	0x3ecc03c0	0.3984661
251	0xbf2b7760	-0.66979027
252	0x3eb1d0b2	0.34729534
253	0xbf76453f	-0.9619941
254	0x3eb2e1fb	0.34938034
255	0xbf0bd1d5	-0.54617053

onnx::Conv_563 f4 [16]
0	0xbeeda5a6	-0.46415442
1	0x3f934cfe	1.1507871
2	0xbe6e1060	-0.23248434
3	0x3eab5f2f	0.33471057
4	0x3f80285e	1.0012319
5	0x401e4e5a	2.4735322
6	0x3bf3fa00	0.007445574
7	0xbee35f44	-0.4440862
8	0x401db276	2.4640174
9	0x3f8833ae	1.0640771
10	0xbefa1294	-0.488423
11	0x3f0f1421	0.5589009
12	0xbefe6ac4	-0.4969083
13	0x3eb9cc4a	0.36288673
14	0x3f29dbae	0.6635083
15	0x3f847e29	1.0351001

onnx::Conv_565 f4 [16, 16, 1, 1]
0	0x3dfd85d0	0.12379038
1	0x3e2032e8	0.15644419
2	0xbc0de433	-0.008660364
3	0x3dc84560	0.09778857
4	0x3cf741a0	0.03018266
5	0x3ce7ec16	0.028310817
6	0x3b8895df	0.0041682567
7	0xbd761cfd	-0.06008624
8	0x3c93aa5b	0.018025568
9	0x3a4c5ff0	0.0007796278
10	0xbd457cfa	-0.04821489
11	0x3c081b4a	0.0083072875
12	0xbd2d684f	-0.042335805
13	0x3abe2576	0.0014507014
14	0x3d551089	0.052017722
15	0x3d8bfe5b	0.06835624
16	0xbe5f9842	-0.21835425
17	0x3e23e27c	0.16004366
18	0xbbf81aa5	-0.0075715357
19	0x3dddf198	0.10837096
20	0xbca3ca20	-0.019993842
21	0xbd81da25	-0.06340436
22	0xbcb8b41d	-0.022546822
23	0x3e8d314a	0.27576667
24	0x3d22f44d	0.039783765
25	0xbdbe7071	-0.0929879
26	0x3e90836d	0.2822527
27	0x3c8daa83	0.01729322
28	0xbd8487c7	-0.0647121
29	0x3dba6aa7	0.091023736
30	0xbc74210f	-0.01490046
31	0x3a3df8a6	0.00072468293
32	0x3e6c452b	0.2307326
33	0xbe18b277	-0.14911829
34	0xbb1de791	-0.0024094323
35	0xbe5d957a	-0.21639052
36	0xbabdde90	-0.0014485884
37	0x3d5dd80c	0.054161116
38	0x3c805740	0.015666604
39	0xbea778e3	-0.32709417
40	0xbda17ac3	-0.07884743
41	0xbcb1f51d	-0.021723324
42	0xbe4895ea	-0.19588438
43	0x3c9b941b	0.01899152
44	0x3e02f6f9	0.12789525
45	0xbd8033c8	-0.062598765
46	0x3e0260e0	0.12732267
47	0x3e14d264	0.14533383
48	0xbe80ee1e	-0.2518167
49	0x3e5d6e0f	0.21624015
50	0xbcab5af4	-0.020917393
51	0x3dd5d332	0.10440673
52	0xbc5ea638	-0.013589434
53	0xbd654f1d	-0.05598365
54	0xbc5a4af4	-0.013323534
55	0x3e916df4	0.284042
56	0x3d168905	0.036751766
57	0xbcc58f1e	-0.024116095
58	0x3e5f7f8b	0.21825998
59	0xbba71d3d	-0.005099921
60	0xbdb3b5a0	-0.087748766
61	0x3d85e58a	0.06537922
62	0xbc442649	-0.0119720185
63	0x3c89afda	0.016807485
64	0xbd5a8291	-0.053347174
65	0xbed369dd	-0.41291705
66	0x3c800474	0.015627123
67	0xbe0b5bf9	-0.13609304
68	0xbf4552ff	-0.77079767
69	0x3cf44491	0.029817851
70	0xbf1496f2	-0.58042824
71	0x3f11caa6	0.5694984
72	0x3f0c03ac	0.546931
73	0x3f509816	0.81482065
74	0x3ed22f40	0.41051674
75	0x3f0752ca	0.528607
76	0xbf1d830d	-0.6152809
77	0xbca1e78a	-0.019763727
78	0x3e5676a3	0.20943694
79	0xbe25ef40	-0.16204548
80	0x3d8459f4	0.0646247
81	0xbc9cb568	-0.01912947
82	0x3c8fdc29	0.017561035
83	0xbe2a566c	-0.1663453
84	0xbd1c4263	-0.03814925
85	0x3b6d5870	0.0036216043
86	0x3b5a62e8	0.0033323113
87	0xbd4747e5	-0.04865255
88	0xbbc103f9	-0.005890366
89	0x3cb9016e	0.02258369
90	0x3cc72711	0.02431062
91	0xbc7945e8	-0.015214421
92	0x3a459b60	0.00075381063
93	0xbd2e90ec	-0.042618677
94	0xbd87db39	-0.0663361
95	0xbe1d9013	-0.15386991
96	0x3dab22bb	0.08356234
97	0x3cd6472e	0.026156988
98	0xbc9eea2a	-0.019398768
99	0xbd756c88	-0.059917957
100	0x3d493431	0.04912204
101	0x3bea9508	0.007158879
102	0xbcf8910c	-0.030342601
103	0x3d42e0a1	0.047577504
104	0x3ce93fc6	0.028472792
105	0xbde78ca7	-0.11306124
106	0x3c9d6928	0.019215181
107	0xbe7b6977	-0.2455195
108	0xbddd0b6e	-0.10793196
109	0xbb389188	-0.0028162915
110	0xbd83fe96	-0.06445043
111	0x3dd936c8	0.10606152
112	0x3e47d2e5	0.19514044
113	0x3e352d3a	0.17693034
114	0x3b16c4a6	0.0023005395
115	0x3d9d52c3	0.07681801
116	0xbdca1987	-0.0986815
117	0x3d1e0b5b	0.03858505
118	0x3cbf3fc0	0.023345828
119	0xbdbf1ded	-0.0933188
120	0x3c16fa3d	0.009214935
121	0x3d5a28da	0.053261615
122	0x3e193afa	0.14963904
123	0xbd24c707	-0.04022887
124	0xbde25db6	-0.1105303
125	0xbe4238fe	-0.18967053
126	0x3a811bd5	0.0009850214
127	0x3d7fa2d9	0.062411163
128	0xbe2b989a	-0.16757432
129	0xbe8732b0	-0.2640586
130	0x39c4a691	0.00037508135
131	0xbe11a602	-0.14223483
132	0x3d8b03e4	0.067878515
133	0xbc5d5f52	-0.013511496
134	0xbca8ea1b	-0.020619443
135	0xbe71435f	-0.23560856
136	0xbe039059	-0.12848033
137	0xbda2f767	-0.079573445
138	0xbe822851	-0.25421384
139	0x3e06edb4	0.13176614
140	0x3ecc6158	0.39918017
141	0x3bbf40b0	0.005836569
142	0x3e2e1bc2	0.17002776
143	0x3e48c064	0.19604641
144	0x3dd5c521	0.1043799
145	0xbe8798a0	-0.2648363
146	0xbd2711aa	-0.04078833
147	0xbe0c20ab	-0.13684337
148	0x3c7a2879	0.0152684385
149	0x3b7ef2a3	0.0038901947
150	0x3c714be2	0.0147275645
151	0xbdaed879	-0.08537383
152	0xbc97f465	-0.018549154
153	0xbdd1015b	-0.10205337
154	0x3ebc0802	0.3672486
155	0xbcfb2c37	-0.030660732
156	0xbd7abec3	-0.06121708
157	0x3d065eb8	0.032805175
158	0x3ed124df	0.40848443
159	0x3f196f60	0.5993557
160	0x3e24666c	0.16054696
161	0x3d5b3cae	0.053524666
162	0xbc1ca86b	-0.009561638
163	0xbd987ab0	-0.07445276
164	0x3d9a984a	0.07548578
165	0xbc8d02f7	-0.017213328
166	0xbeae1792	-0.34002358
167	0x3e936acc	0.28792417
168	0x3da4c7dd	0.080459334
169	0xbc8ff1a5	-0.01757128
170	0x3dd6b3ed	0.10483537
171	0xbf0a7a1d	-0.5409258
172	0xbee3d332	-0.44497067
173	0xbc0f4c93	-0.008746284
174	0x3d019191	0.031632964
175	0x3b697ecf	0.0035628562
176	0x3bf6ed83	0.007535638
177	0xbfd1207f	-1.6338042
178	0xbb70e99e	-0.003676034
179	0x3d88985f	0.066696875
180	0x400b1e29	2.1737158
181	0xbd16b525	-0.036793847
182	0xbd9cf90c	-0.076646894
183	0x3dce04f4	0.100595385
184	0xbd7e4c4a	-0.062084474
185	0x401f7c72	2.4919705
186	0x3f3bc3a1	0.7334538
187	0x3cf88c95	0.030340472
188	0xbe10cb1f	-0.14139985
189	0xbe241087	-0.1602193
190	0x3ea3e360	0.3200941
191	0xbf7e3336	-0.9929689
192	0xbe806c4f	-0.25082633
193	0xbdd2384b	-0.10264643
194	0xbc551382	-0.013005139
195	0x3b3d0124	0.0028839791
196	0x3da467ef	0.08027636
197	0xbd9e3840	-0.077255726
198	0xbc99538e	-0.0187166
199	0x3e6aff63	0.22948985
200	0x3c452272	0.012032138
201	0xbe18e244	-0.14930063
202	0x3d54954c	0.051900193
203	0x3cff3992	0.031155381
204	0x3ca4071a	0.020022918
205	0x3d9f2a3e	0.07771729
206	0x3d25f6d0	0.040518582
207	0x3da9fdcd	0.08300362
208	0xbbf3e77e	-0.0074433675
209	0x3d9fef7b	0.07809349
210	0xbc884e85	-0.016639004
211	0x3d577ce0	0.052609324
212	0x3c923690	0.017848283
213	0xba26d4b8	-0.0006364095
214	0x3c37f905	0.0112288045
215	0x3c1c121d	0.009525803
216	0xba88e955	-0.0010445515
217	0x3d1da968	0.038491637
218	0xbd9884d0	-0.07447207
219	0x3b20e435	0.0024550084
220	0x3c2c753c	0.010525998
221	0x3d1de8b7	0.038552012
222	0x3d88621b	0.06659337
223	0x3e057139	0.13031472
224	0x3dc3054b	0.09522494
225	0x3e10f7fa	0.14157096
226	0xbc9cfed4	-0.01916448
227	0xbd2034d3	-0.039112877
228	0x3d57a748	0.052649766
229	0x3b6e2424	0.003633746
230	0xbd02bfa0	-0.03192103
231	0x3d4e1980	0.050317287
232	0x3ccb7d7a	0.024840105
233	0xbda5a3c5	-0.08087877
234	0x3dff9926	0.124803826
235	0xbe92125a	-0.28529626
236	0xbe06636e	-0.13123867
237	0x3cb6b4c6	0.022302996
238	0xbdef533c	-0.116857976
239	0x3dbb107d	0.09134004
240	0xbe42dcbb	-0.19029514
241	0x3f7c3d36	0.985309
242	0xbcd21753	-0.025645887
243	0x3ede7718	0.43450236
244	0x3f39de83	0.7260515
245	0xbd21790a	-0.039422072
246	0x3eb1aa31	0.34700158
247	0xbf59206d	-0.848151
248	0xbf8a4ed1	-1.0805303
249	0xbf93a0fa	-1.1533501
250	0xbe8ddb83	-0.27706537
251	0x3d611190	0.05494839
252	0x3f901907	1.1257638
253	0xbedc0f4c	-0.4298042
254	0x3f559f1f	0.83445925
255	0x3ec1c4d4	0.3784548

onnx::Conv_566 f4 [16]
0	0x3dbb4860	0.09144664
1	0x3e89eb7a	0.26937467
2	0x3e88e752	0.26738983
3	0x3e4efa90	0.2021277
4	0xbf7df553	-0.9920246
5	0x3e7976a8	0.2436167
6	0x3e162f37	0.14666449
7	0x3d16e8f8	0.03684327
8	0x3ed11ec3	0.40843782
9	0x3e9f8924	0.31159317
10	0x3e150533	0.14552765
11	0xbf874f4c	-1.0571074
12	0x3ed94a7c	0.4243964
13	0x3e21f5d8	0.15816438
14	0x3dd3abfb	0.10335537
15	0x3fd7c10b	1.6855787

onnx::Conv_568 f4 [16, 1, 3, 3]
0	0x3f3c990d	0.73671037
1	0x3f1b3b6e	0.6063756
2	0xbf61ba77	-0.8817515
3	0x3fb63186	1.4233863
4	0x3e077fba	0.13232318
5	0xbfe3519a	-1.7759278
6	0x3e9c5b1b	0.30538258
7	0xbe9912a2	-0.29897028
8	0xbebfe1b1	-0.37476876
9	0x3edf8375	0.4365498
10	0x3ea6c2e6	0.3257057
11	0xbf55d2ee	-0.8352498
12	0xbf20890a	-0.62709105
13	0x3fabf5b7	1.3434361
14	0xbf24b107	-0.6433262
15	0xbed5259e	-0.41630262
16	0xbc7d0995	-0.015444179
17	0x3f2f046b	0.68366116
18	0x3ea7f889	0.32806805
19	0x3dd47474	0.10373774
20	0x3c72d7c5	0.014821951
21	0xbf3d2de7	-0.73898166
22	0xbe4a5cce	-0.19761965
23	0x3f3777b0	0.71667004
24	0xbb87e90b	-0.004147654
25	0xbef377d9	-0.47552374
26	0xbeff917c	-0.49915683
27	0x3ea869d5	0.32893243
28	0xbf5a5a31	-0.8529387
29	0x3e64c0cd	0.22339173
30	0x3fa768b9	1.3078834
31	0xbf01274f	-0.50450605
32	0xbefff7bf	-0.49993703
33	0xbe342af5	-0.17594512
34	0x3fa55583	1.2916721
35	0xbf6e396c	-0.9305637
36	0xbd8a1d2a	-0.06743844
37	0xbe0a8403	-0.13526921
38	0xbdaedeb9	-0.08538575
39	0xbdadf358	-0.0849368
40	0xbe31b382	-0.17353633
41	0xbd7b5636	-0.061361514
42	0xbc4cdc7b	-0.0125037385
43	0xbce94a92	-0.02847794
44	0x3c2011a7	0.009769834
45	0x3f787046	0.97046316
46	0x3ffb7058	1.964366
47	0x3f99689f	1.1985053
48	0x3f83d3ee	1.0299051
49	0xbec84ce0	-0.3912115
50	0xbed43519	-0.4144676
51	0xbf988e6e	-1.1918466
52	0xc007f4e8	-2.124323
53	0xbf717bfb	-0.94329804
54	0xbf1f43d2	-0.6221286
55	0xbf8aa29f	-1.0830878
56	0xbe29cb4b	-0.16581456
57	0x3f16bf26	0.5888542
58	0x3fcb531a	1.5884736
59	0x3f513932	0.817279
60	0xbd4f0c6d	-0.05054896
61	0xbeaf1843	-0.34198198
62	0xbefb6243	-0.49098405
63	0x3eef2d6c	0.46714342
64	0xbf299106	-0.66236913
65	0xbc0f7a29	-0.008757153
66	0x3d95dac0	0.07317114
67	0xbfae7751	-1.3630162
68	0x3fa9419d	1.3223149
69	0xbed579c7	-0.4169447
70	0xbd85301b	-0.06503316
71	0x3f91619d	1.1357914
72	0xbf088ba5	-0.5333808
73	0xbf26f11f	-0.6521167
74	0x3c9fbb25	0.019498417
75	0xbeb61bc0	-0.35568047
76	0x3c7d1664	0.015447233
77	0x3eac43e0	0.33645535
78	0x3d753065	0.059860606
79	0x3ed968e6	0.42462844
80	0x3e748960	0.2388053
81	0xbe1ac31c	-0.15113491
82	0xbe3a2cd5	-0.18181165
83	0xbd6fe20d	-0.05856519
84	0xbe03f0b8	-0.12884796
85	0x3f61c532	0.8819152
86	0xbe09c5e5	-0.13454397
87	0x3f09c95c	0.53822875
88	0x3f104225	0.5635093
89	0xbe8b08f7	-0.27155277
90	0xbd7d109b	-0.061783414
91	0x3cfe86cd	0.031070137
92	0x3e599ab7	0.21250425
93	0xbdf767f6	-0.12080376
94	0xbeb75d5d	-0.35813418
95	0xbe0d4007	-0.13793956
96	0x3d374eee	0.044753008
97	0xbead0a38	-0.3379686
98	0xbea96c9b	-0.33090672
99	0xbd61cd05	-0.055127162
100	0xbdd27f1f	-0.10278153
101	0xbda027ed	-0.07820115
102	0xbe1741a5	-0.14771135
103	0xbe65fc1d	-0.22459455
104	0xbdf86a36	-0.12129633
105	0xbdc48b24	-0.095968515
106	0xbe1ca895	-0.15298684
107	0xbd7f4fa9	-0.06233183
108	0x3e8783a0	0.2646761
109	0xbb9e82c6	-0.0048373668
110	0xbe316204	-0.17322546
111	0x3f583af3	0.8446495
112	0xbf6684c7	-0.9004635
113	0x3ea41a95	0.3205153
114	0x3ec06597	0.37577507
115	0xbf6b5599	-0.91927487
116	0x3eb07d0d	0.34470406
117	0xbf5ce75b	-0.8629052
118	0x3e0c2926	0.13687572
119	0x3f54cefc	0.83128333
120	0xc01bb531	-2.432934
121	0x3f12ebec	0.5739124
122	0x400053b0	2.0051079
123	0xbf384302	-0.71977246
124	0x3e1120f4	0.14172727
125	0x3e94981a	0.29022294
126	0x3d58faba	0.052973486
127	0x3eaa8efa	0.33312207
128	0x3e6fee34	0.23430711
129	0xbf23127a	-0.6370007
130	0xbf9f64f0	-1.2452679
131	0xbe92ce46	-0.28673
132	0x3ef8a80d	0.48565713
133	0x3f9f0c1b	1.2425569
134	0x3ebbd480	0.36685562
135	0x3c78c9f5	0.015184869
136	0x3d92fec3	0.07177498
137	0x3d84ca68	0.064839184
138	0x3d41dc4c	0.047329232
139	0x3dbce7dc	0.09223911
140	0x3cc207c2	0.02368534
141	0x3cf572a6	0.029961895
142	0x3be17b05	0.00688112
143	0xbc6e0e2f	-0.014529749

onnx::Conv_569 f4 [16]
0	0x3e7166cc	0.2357437
1	0xbd65313e	-0.055955164
2	0x3f144648	0.5791974
3	0xbd24b0a3	-0.040207516
4	0x3e8af20d	0.27137795
5	0x3e5f9854	0.21835452
6	0xbceb20e8	-0.028702214
7	0xbdb71a8c	-0.0894061
8	0x3e34c7f6	0.17654404
9	0xbe2e2b9e	-0.17008826
10	0x3f61d416	0.8821424
11	0x3f08da32	0.5345794
12	0xbd06f4e5	-0.032948393
13	0x3e07f1d1	0.1327584
14	0xbd87694f	-0.06611883
15	0x3c815244	0.015786298

onnx::Conv_571 f4 [16, 16, 1, 1]
0	0x3f1c3da6	0.6103157
1	0x3eb8b650	0.36076593
2	0xbe10ed7b	-0.14153092
3	0x3e5fdcab	0.21861522
4	0xbd03dacb	-0.03219108
5	0xbeaa19eb	-0.332229
6	0xbd5caae8	-0.053873926
7	0x3db0a706	0.08625607
8	0x3e57358f	0.21016525
9	0x3e2a5f1b	0.16637842
10	0xbd303602	-0.043020256
11	0xbeae5e9e	-0.34056562
12	0xbe583019	-0.21112098
13	0xbea49ae1	-0.32149413
14	0xbde69aba	-0.112599805
15	0xbd96930d	-0.073522665
16	0x3d81d9f3	0.06340399
17	0xbe43b78a	-0.19112983
18	0xbdb948c1	-0.0904708
19	0xbdc2d52a	-0.09513314
20	0xbcddc05c	-0.027069263
21	0xbe22c616	-0.15895876
22	0x3d46c663	0.04852904
23	0x3ef6e514	0.48221648
24	0xbd78b4d1	-0.060719315
25	0xbd20bf5e	-0.039245002
26	0xbec2a335	-0.38015142
27	0x3e5b5153	0.21417741
28	0xbc41bc1b	-0.011824633
29	0xbd81dc3f	-0.06340837
30	0x3e5b4738	0.21413887
31	0xbd7a08c6	-0.061043523
32	0x3dab0da9	0.08352215
33	0x3e250fc2	0.16119292
34	0xbc42622f	-0.011864229
35	0x3df1b969	0.11802942
36	0x3e97ba3a	0.29634267
37	0x3ef253ad	0.47329465
38	0xbec8729f	-0.3914995
39	0xbe0b747c	-0.13618654
40	0xbd91758d	-0.07102499
41	0x3e88ebd1	0.26742414
42	0xbf20f489	-0.6287313
43	0xbdd848b9	-0.10560746
44	0xbdd2f889	-0.103013106
45	0x3daff433	0.08591499
46	0xbe722e17	-0.23650394
47	0xbaa796fb	-0.0012786085
48	0x3dd15578	0.1022138
49	0xbdce1ca3	-0.10064056
50	0x3e0ec482	0.1394215
51	0xbe1d807b	-0.15381043
52	0xbd8974a5	-0.06711701
53	0xbe3fa24f	-0.1871426
54	0x3d2a3935	0.041558463
55	0x3d344717	0.04401311
56	0x3d127ef9	0.03576562
57	0xbdcb5e38	-0.0993008
58	0xbda877a7	-0.08225947
59	0x3d5cccfb	0.053906422
60	0x3c7e879c	0.0155352615
61	0xbf7f5e4d	-0.99753267
62	0x3d171f58	0.036895126
63	0x3d8434f1	0.0645541
64	0xbd5a5fa4	-0.053313866
65	0xbeb52c05	-0.35385147
66	0x3da1e448	0.07904869
67	0xbe4b9814	-0.19882232
68	0x3f950267	1.1641358
69	0xbed7fb33	-0.42183837
70	0xbee8d3ec	-0.45474184
71	0x3de7c66f	0.11317145
72	0xbe6c3239	-0.23066033
73	0xbc3d1060	-0.011539549
74	0x3f114a0f	0.5675363
75	0x3db5e58b	0.088816725
76	0xbeaa9630	-0.3331771
77	0x3eaeb9ec	0.34126222
78	0xbe6c050f	-0.23048805
79	0xbebea5f2	-0.3723598
80	0xbdc01d60	-0.09380603
81	0x3e40065f	0.1875243
82	0xbed75d2e	-0.42063278
83	0x3e2a1a8f	0.16611694
84	0x3d88cd7d	0.06679819
85	0xbe19df86	-0.15026674
86	0x3d8a32ec	0.06747994
87	0x3e2a0d30	0.16606593
88	0x3e054ad9	0.13016833
89	0xbd95d74d	-0.07316456
90	0xbcaa538b	-0.02079179
91	0xbdc63ffe	-0.09680174
92	0x3e859c60	0.26095867
93	0x3de970d2	0.11398472
94	0xbeb6f18c	-0.3573116
95	0xbe064bee	-0.13114902
96	0xbe73dce4	-0.23814732
97	0x3d51e3aa	0.051242508
98	0xbe5c147e	-0.21492192
99	0x3df0a5d6	0.11750381
100	0xbd79953c	-0.060933337
101	0x3e4ef0e8	0.20209086
102	0x3ea70c53	0.3262659
103	0xbd726953	-0.059182476
104	0xbdf6fafd	-0.12059591
105	0xbe617c5a	-0.22020093
106	0x3ea4562b	0.3209699
107	0xbe0110d0	-0.1260407
108	0xbe001ed1	-0.12511756
109	0xbe86e242	-0.26344496
110	0x3ea3fdc1	0.32029536
111	0x3f756407	0.95855755
112	0x3f4b6f3e	0.7946662
113	0x3e9d0dec	0.30674684
114	0xbe26f9df	-0.16306256
115	0x3e3eec56	0.18644843
116	0x3f024f87	0.509026
117	0x3f2f4072	0.6845771
118	0xbe5be564	-0.21474224
119	0x3f2809ee	0.6564015
120	0x3dfd74c1	0.12375785
121	0x3e025d26	0.12730846
122	0x3e6ac33a	0.22926036
123	0x3e2a3903	0.1662331
124	0x3f4786ae	0.7793988
125	0xbd2e780d	-0.042594958
126	0xbe86a56d	-0.26298085
127	0x3d20c2f2	0.039248414
128	0xbd2283fc	-0.03967665
129	0x3e12fabe	0.14353463
130	0xbefdaba1	-0.49545005
131	0xbddda045	-0.108215846
132	0x3db48841	0.08815051
133	0x3c79d255	0.015247901
134	0x3cb217de	0.021739896
135	0x3d07d3fe	0.033161156
136	0xbee25a3b	-0.44209465
137	0x3eb75c06	0.35812396
138	0xbcc869dc	-0.02446454
139	0x3cb92bae	0.022603836
140	0x3d4aae9f	0.049482938
141	0xbe3db6b3	-0.18526725
142	0x3cda16bd	0.02662217
143	0x3d1d2626	0.03836646
144	0xbc828ec6	-0.01593722
145	0x3ea1f2eb	0.31630644
146	0x3dae1531	0.08500136
147	0x3ea71c0b	0.32638583
148	0xbe0fe32b	-0.14051501
149	0xbf086bd4	-0.5328953
150	0xbe21cc85	-0.15800674
151	0xbe9d68c4	-0.30743992
152	0xbec810af	-0.3907523
153	0xbe7c5652	-0.24642304
154	0xbeaf76c0	-0.34270287
155	0xbcd31232	-0.025765512
156	0x3e26ba6c	0.16282052
157	0x3eba83df	0.36428735
158	0x3e80ef92	0.25182778
159	0xbd69eaf6	-0.05710884
160	0x3d42bca3	0.04754318
161	0x3d8054c3	0.06266167
162	0x3e4c4a0a	0.19950119
163	0x3bf4e8ec	0.0074740555
164	0x3e6cb3c7	0.23115455
165	0x3d073203	0.03300668
166	0x3ea919f4	0.33027613
167	0xbe17f8cd	-0.14841004
168	0x3de18152	0.11010994
169	0xbda77a6c	-0.08177647
170	0x3e3aa480	0.18226814
171	0x3e0f190f	0.13974403
172	0xbdbc68f1	-0.091997035
173	0xbc707a14	-0.014677543
174	0x3e6c7679	0.23092069
175	0x3dfa45ef	0.1222037
176	0x3e4fa8be	0.20279214
177	0x3d03560d	0.032064486
178	0x3ddf8831	0.10914648
179	0xbd8d433c	-0.068975896
180	0xbe1afef6	-0.15136322
181	0xbd4a0d80	-0.04932928
182	0x3dbc7b6b	0.092032276
183	0xbe82849e	-0.25491804
184	0xbe4903ef	-0.19630407
185	0xbe8d4d59	-0.27598074
186	0x3df57726	0.119856164
187	0x3f3707c0	0.714962
188	0xbe5722db	-0.2100939
189	0x3b40b8aa	0.0029406943
190	0xbd7bca27	-0.061472084
191	0x3da5671c	0.08076307
192	0x3ed1c586	0.4097101
193	0xbe997787	-0.29974005
194	0xbe14fea3	-0.14550261
195	0xbe2fb8a3	-0.17160277
196	0xbd0b70d1	-0.034043137
197	0x3e099f60	0.13439703
198	0x3e5f7a81	0.21824075
199	0x3de2efe9	0.110809155
200	0xbe51f191	-0.20502307
201	0x38ba1eb5	8.874891e-05
202	0x3e156b9c	0.14591831
203	0xbf54af07	-0.8307957
204	0xbd9c41fd	-0.07629774
205	0xba30e5dd	-0.00067481195
206	0x3e6d20ab	0.23156993
207	0xbccf7c35	-0.025327781
208	0x3e2c2894	0.16812354
209	0xbdbaef3c	-0.091276616
210	0x3ca317ce	0.019908812
211	0xbe63701b	-0.22210734
212	0xbe41508f	-0.18878387
213	0xbe8a86f9	-0.270561
214	0x3e9440af	0.289556
215	0x3cd2e862	0.025745574
216	0x3ebaa398	0.36452937
217	0x3ecac6e8	0.39604878
218	0x3dd2560b	0.10270318
219	0xbd911d5d	-0.07085679
220	0x3d3bed1d	0.045880426
221	0x3ec38152	0.381846
222	0x3dd1c1f0	0.10242069
223	0x3f4f53ed	0.80987436
224	0x3ceee203	0.029160505
225	0x3e36f4e7	0.1786686
226	0x3e1125fb	0.14174645
227	0xbe3c12f5	-0.18366607
228	0xbe381349	-0.17976107
229	0xbdf23501	-0.11826516
230	0x3beaeedb	0.007169587
231	0x3df921c4	0.121646434
232	0xbde25c71	-0.11052788
233	0xbd060a75	-0.032724816
234	0x3dbc4e5a	0.09194632
235	0xbdce2689	-0.10065944
236	0x3e098cc0	0.13432598
237	0x3e194cae	0.14970657
238	0xbd9a36c0	-0.07529974
239	0xbde1a803	-0.11018374
240	0xbe2c9dfe	-0.16857144
241	0xbeaf4803	-0.34234628
242	0xbeb7c65c	-0.35893524
243	0xbf10fb35	-0.5663331
244	0xbd89c724	-0.06727436
245	0xbd339b7b	-0.04384945
246	0xbdc9f565	-0.098612584
247	0xbe5473c3	-0.20747285
248	0x3e3d034f	0.18458293
249	0xbf0153b6	-0.5051836
250	0xbe8c15b9	-0.27360323
251	0xbcc8d30c	-0.024514697
252	0xbee27b5b	-0.44234738
253	0xbe5ed54c	-0.21761054
254	0xbe64d23a	-0.2234582
255	0xbd975214	-0.07388702

onnx::Conv_572 f4 [16]
0	0x3ebceb60	0.36898327
1	0x3e72079c	0.23635715
2	0x3e743052	0.23846558
3	0x3e21d66c	0.15804452
4	0xbef124d3	-0.47098407
5	0x3ed24c10	0.41073656
6	0xbe1ba746	-0.15200529
7	0xbf211b80	-0.62932587
8	0x3e6146a4	0.21999604
9	0x3ea49df1	0.3215175
10	0xbe93a536	-0.28836983
11	0xbeccb8b6	-0.39984673
12	0x3e07411e	0.13208434
13	0xbe500289	-0.20313467
14	0x3d407ae1	0.046992186
15	0x3f2a7168	0.66579294
